project_data/trained_topic_model/topic_embeddings.safetensors (safetensors, 29272 bytes, 1 tensors)

topic_embeddings f4 [19, 384]
0	0xbd44ebd3	-0.048076462
1	0xbd37d06d	-0.044876505
2	0x3991726c	0.00027741806
3	0xbc39b3af	-0.011334344
4	0x3ce0e7da	0.027454305
5	0x3adcfb13	0.0016859494
6	0x3c49cf6e	0.0123175215
7	0x3ca6ca22	0.020360056
8	0xbc15b648	-0.0091376975
9	0xbc1c8496	-0.009553095
10	0xbcfd4be5	-0.030919978
11	0x3b8803b1	0.0041508307
12	0x3bb793bf	0.0056023295
13	0xbbd7fa4e	-0.006591118
14	0x3c7b7dc4	0.015349809
15	0x3cdf1fa7	0.027236773
16	0x3d1a3a06	0.03765299
17	0xbc8256d7	-0.01591055
18	0xbd2f4ce9	-0.042797957
19	0xbd14e219	-0.036348436
20	0xbb056b2d	-0.0020358071
21	0xbbc78885	-0.0060892724
22	0x39ffb170	0.0004876959
23	0xbca4eea9	-0.020133333
24	0xbc99380b	-0.018703481
25	0x3c1a25b5	0.009408404
26	0x3c40cdd7	0.011767826
27	0xbd180385	-0.03711273
28	0x3c23e530	0.010003373
29	0xbcc97ffb	-0.024597159
30	0x3ca18a7f	0.01971936
31	0x3c45de7e	0.012076972
32	0x3d156f45	0.036483068
33	0x3ca07d0c	0.019590877
34	0xbcaaaed0	-0.02083531
35	0x3c522c8b	0.012828003
36	0xbcade7ed	-0.021228755
37	0xbafe1be9	-0.001938698
38	0x3c84320e	0.01613715
39	0xbd085995	-0.033288557
40	0xbc1f0c01	-0.009707452
41	0xbd32646c	-0.0435528
42	0xbc6dbbfe	-0.014510153
43	0xbccdd06b	-0.025123795
44	0x3d2419f2	0.040063806
45	0x3c6e2671	0.014535532
46	0xbd0c75e9	-0.034292135
47	0xbcb10fbd	-0.02161395
48	0x3c08c4d3	0.008347708
49	0x3ca5d370	0.020242423
50	0xbda32c51	-0.07967437
51	0xbd5f5e7b	-0.054533463
52	0x3c9898f8	0.018627629
53	0xbc0be83f	-0.0085392585
54	0xbcf3c2df	-0.029756008
55	0x3c804561	0.015658082
56	0x3aed197a	0.0018089258
57	0x3bd10d61	0.0063797687
58	0x3c5d00e3	0.013488981
59	0xbc97b0c3	-0.018516904
60	0x3cb110bb	0.021614423
61	0xbcfdc806	-0.030979168
62	0x3c919643	0.017771846
63	0xbb5c5e16	-0.0033625416
64	0x3ce23653	0.027613794
65	0x3c6d2528	0.014474191
66	0xbcf972b2	-0.030450199
67	0x3cc11b53	0.0235726
68	0x3bf7d4c1	0.007563204
69	0xbd1b02ce	-0.03784447
70	0x3c11b0c3	0.008892241
71	0x3c6b065f	0.014344781
72	0xbc952eaf	-0.018210737
73	0x3cedcba1	0.029027762
74	0x39ec14f4	0.0004502904
75	0x3c3d571b	0.011556412
76	0x3b8b8ec8	0.004258964
77	0xbca4590b	-0.02006199
78	0x3d3c9b72	0.04604668
79	0xbcd9e6bb	-0.026599279
80	0x3c89c816	0.016819041
81	0x39a8a0c3	0.00032163234
82	0x3b557986	0.0032573654
83	0x3cfe9ce2	0.031080667
84	0xbca88749	-0.020572321
85	0xbae9b6c9	-0.0017830963
86	0x3be388ba	0.0069437893
87	0x3b64c164	0.003490531
88	0x3cc5c628	0.02414234
89	0x3b88be70	0.0041730925
90	0x3c677895	0.01412787
91	0xbc3ddef2	-0.011588799
92	0x3cf6cf11	0.030128034
93	0xbbe7d036	-0.007074381
94	0x3d28b2e9	0.041186247
95	0x3c2aef42	0.01043302
96	0xbcd4fc32	-0.025999162
97	0xbd29c738	-0.041449755
98	0xbccf50ec	-0.025307141
99	0x3d08e618	0.03342256
100	0xbc9e6bba	-0.019338477
101	0x3c609ab7	0.013708762
102	0xbc1dd676	-0.009633651
103	0xbd053779	-0.032523606
104	0xbccf8735	-0.025333026
105	0x3c281677	0.010259262
106	0x3cff51da	0.03116696
107	0x3b60337e	0.003421038
108	0x3d03d2f5	0.032183606
109	0x3bc4c3e4	0.0060047973
110	0xbce23b1a	-0.027616072
111	0x3ba5d70e	0.005061037
112	0x3bc862fa	0.0061153146
113	0xbd11ad67	-0.03556576
114	0x3d126449	0.03574017
115	0x3c00609d	0.007835534
116	0xbcaffafe	-0.021481987
117	0x3d262f3b	0.040572386
118	0x3d0976e7	0.03356066
119	0x3cd3290b	0.025776407
120	0x3ba4577b	0.0050153113
121	0x3ba2c955	0.0049678483
122	0xbc58ad48	-0.013224907
123	0x3cc183dc	0.023622446
124	0x3cf09d64	0.029371925
125	0xba8ac941	-0.0010588543
126	0xbd0c8a91	-0.034311835
127	0x09c8c7c9	4.8336126e-33
128	0xbbe1e7f5	-0.0068941065
129	0x3cdd9760	0.02704972
130	0x3c135ffe	0.008995054
131	0x3c653980	0.01399076
132	0x3cc8cd95	0.024512092
133	0xbc9f4c8f	-0.019445686
134	0xbb2f0cd3	-0.0026710525
135	0x3c75633c	0.014977273
136	0xbccfe197	-0.025376124
137	0xbd0683d4	-0.032840565
138	0xbd037a7b	-0.03209923
139	0x3cba0ae4	0.022710271
140	0xbcd86248	-0.026414052
141	0x3d228779	0.039679978
142	0x3c5a0931	0.013307855
143	0xbd26a401	-0.04068375
144	0xbb9eb391	-0.0048431833
145	0x3c4f4205	0.012650018
146	0x3c26c7a0	0.01017943
147	0xbc484682	-0.012223842
148	0x3d057c5b	0.032589298
149	0xbd13b61f	-0.036062356
150	0x3ca7ea10	0.020497352
151	0x3bec3c65	0.007209348
152	0x3cb9ef72	0.022697184
153	0x3ca6364a	0.020289559
154	0x3cbd04fc	0.023073666
155	0xbce4e59e	-0.027941521
156	0x3d6c7cfb	0.05773638
157	0x3c5d29d4	0.013498742
158	0xbd18a681	-0.037268165
159	0x3c1e56a4	0.009664211
160	0xbd40d673	-0.047079515
161	0xbba77791	-0.005110689
162	0xbbdcb0c1	-0.006734938
163	0x3ca61780	0.020274878
164	0xbcf17740	-0.029475808
165	0xbcf2dd1e	-0.029646453
166	0xbc3a2be5	-0.011363004
167	0x3d02230e	0.031771712
168	0xbccdab48	-0.025106087
169	0x3d042d8f	0.03227001
170	0x39516efd	0.0001997314
171	0xbd03c527	-0.03217044
172	0xbce9ac48	-0.028524533
173	0x3c577507	0.01315046
174	0x3c46c814	0.012132663
175	0xbcced898	-0.025249764
176	0x3ae4a8f2	0.0017445369
177	0x3b803b7b	0.0039133406
178	0xbcd2f5b0	-0.025751919
179	0x3c94775a	0.018123318
180	0xbc4bb3a9	-0.012432971
181	0xbcc3d79c	-0.023906521
182	0x3c50188d	0.012701166
183	0xbcd78129	-0.026306706
184	0xbc91f55c	-0.017817192
185	0xbc361fec	-0.011116009
186	0x3c9f61cf	0.019455818
187	0xbc051dcf	-0.008124783
188	0x3bb029a5	0.005376058
189	0xbbbc1614	-0.0057399366
190	0xbc891479	-0.016733395
191	0x3cefba82	0.029263739
192	0xbcd5c14a	-0.026093144
193	0x3ce9cab0	0.028539032
194	0x3c9b6857	0.018970652
195	0x3c084e32	0.008319424
196	0x3cda0474	0.026613452
197	0x3c804fe0	0.015663087
198	0x3aaa1954	0.0012977519
199	0xba1c2918	-0.0005957051
200	0xbb5c4e02	-0.0033615832
201	0xbc7713fd	-0.015080449
202	0xbd1e95eb	-0.03871719
203	0x3b8b22f1	0.0042461087
204	0xbc938269	-0.01800652
205	0xbd0245d7	-0.031804886
206	0x3c3751ba	0.011188919
207	0x3a601c6f	0.0008549159
208	0xbcb19736	-0.021678548
209	0xbbe52c37	-0.006993796
210	0xbab0c5cb	-0.0013486681
211	0xbc926146	-0.01786865
212	0x3ce9a48d	0.028520847
213	0xbcd095d0	-0.025462061
214	0x3bcde142	0.0062829563
215	0xbc49b189	-0.012310394
216	0x3b33bdaf	0.0027426293
217	0x3cc4c180	0.02401805
218	0xbd187d83	-0.037229072
219	0x3b5f5afb	0.0034081328
220	0xbc802b2e	-0.01564559
221	0x3d37933a	0.04481814
222	0xbcd81f6b	-0.026382169
223	0x89d8bb26	-5.2176102e-33
224	0xbd40f349	-0.047107015
225	0xbb345216	-0.0027514747
226	0xbceda1b2	-0.029007766
227	0x3d126631	0.03574199
228	0x3c7f8fb9	0.015598231
229	0xbbf8a7dc	-0.00758837
230	0xbb63e458	-0.0034773555
231	0x3c6bc8dd	0.014391151
232	0x3cf3f9d5	0.029782215
233	0x3ce77004	0.028251655
234	0xbc75aa41	-0.014994205
235	0xbc67733c	-0.014126595
236	0x3bc1ffbc	0.0059203785
237	0xbb881724	-0.004153149
238	0xba68f58c	-0.0008886687
239	0xbcfcef57	-0.030875845
240	0x3c06c963	0.008226725
241	0xbce874ee	-0.028376069
242	0xbc8762e9	-0.016526656
243	0x3aa28a13	0.0012400768
244	0x3bce6bae	0.0062994575
245	0x3d46f1ac	0.04857032
246	0xbd540734	-0.051764682
247	0xbc838685	-0.016055355
248	0x3c9ef25b	0.019402673
249	0x3cb3719c	0.02190476
250	0xbcd0e05d	-0.02549761
251	0x3d19c8d7	0.03754505
252	0x3c084ccc	0.008319091
253	0x3b167aa8	0.0022961292
254	0x3c041d74	0.008063663
255	0xbb55374b	-0.0032534178
